~/chromeTemp/optimization_guide_model_store/20/E6DC4029A1E4B4C1/99499E5037A96A40/model.tflite (tflite, 64852 bytes, 5 tensors)

arith.constant f4 [1, 64]
00000000: cb04 be3d ab96 0b3e 29fc acbd a386 613e
00000010: 6252 e0bd e2ac e73d aeee 993e e37f efbd
00000020: 4407 bbbe 7b1f fdbd 424b a7be 71fa 46be
00000030: 0ca0 59be fdd0 38be a356 70be 7a65 2b3e
00000040: fce9 9e3e 7c2e e1bd 9323 07bd 0b1b 6f3d
00000050: eb6d 16be 31dd 93be 09ee 563e d527 403e
00000060: 554e 503e 76f7 153f 2c3b e2bd 78a5 46bc
00000070: 24d9 53be 3aa9 653e a160 9bbe 15ba 343e
00000080: 069e 923d 34ba 393e c1b0 723e 7c8b 553e
00000090: d086 4d3e 80d8 71bd da3a 263e 8905 5d3e
000000a0: 1560 2fbe 8d35 fb3d bf2c ad3e 2cfb 313e
000000b0: 33d2 f83d 800b 6b3e 7969 8abe 1ccd 993e
000000c0: 658b 7e3e ce90 92be af00 013e 5b5a 163e
000000d0: 70f5 2b3e e097 663e 6173 a0be 6e93 94be
000000e0: 0e41 92be a49f b43d 4c8a 93be 0389 973d
000000f0: 6cea d83e f26b 673e d5fb 7bbe 7198 17be
0.09278258 0.13631694 -0.08446533 0.22024016 -0.10953213 0.11312272 0.3006491 -0.11694314
-0.3652898 -0.1235952 -0.32674605 -0.19431473 -0.2125246 -0.18048473 -0.2347055 0.16737929
0.3103789 -0.10995194 -0.03299291 0.0583754 -0.14690368 -0.28879693 0.2098924 0.18765195
0.20342381 0.5858072 -0.110464424 -0.012124412 -0.20688301 0.22427836 -0.3034716 0.1764911
0.07159047 0.18137437 0.23700239 0.2085399 0.20070958 -0.05904436 0.16233388 0.21584143
-0.17126496 0.122660734 0.338232 0.1738097 0.12149467 0.22953606 -0.27033594 0.300393
0.24857862 -0.28626102 0.12597917 0.14682905 0.16792846 0.22518873 -0.31338027 -0.2901873
-0.28565258 0.088195115 -0.2881645 0.0739918 0.4236635 0.22599772 -0.24607785 -0.14804246

arith.constant1 f4 [64, 128]
00000000: 6975 e83b c06e 033e ad59 51bd b10c df3c
00000010: f09b c73d be03 97bc 114f dcbc 38d3 b7bd
00000020: 1438 1abe 9f00 993d 96b1 973d 7b07 d73b
00000030: 26ab 96bd 19d1 0cbe 053e eebc 56b3 243d
00000040: 40e8 f7bd 01f8 4abd 44b2 c2bd bd86 da3d
00000050: 528a 6f3d 4ed5 043e 2fb7 ebbd 219f 20bc
00000060: 56d7 083e b406 2fbd bffb 1b3d e3d2 19be
00000070: 02d0 a5bd 41c1 b5bd caba 1dbe 280f 0fbe
00000080: d9dc 2bbd a54a e2bd 2d20 c8bd 76af 063e
00000090: 3909 813d 57af 923d 4452 9c3d ea81 f9bd
000000a0: 2fd3 d33c 9f7a 2fbe 9be6 ee3d c359 ea3d
000000b0: 777d 323d c697 ea3d 981a 20bd 14b5 c73d
000000c0: 0020 9b3b 4a12 843d 046c 63ba aeb5 2c3e
000000d0: 484c cc3d fe69 1c3e c15c 343e fd7e 36bc
000000e0: f5c6 093d b314 f3bd b26b 89bc 220f 8a3d
000000f0: 6bec 00be d5a8 e0bd 63d4 09be 5fb7 fe3d
00000100: 7de2 c7bd 95dc b53d ae8b 903d f023 19bd
00000110: 2d68 3b3d 4f3e ee3d d92a d43d fffc 953d
00000120: 718d 7d3d 63dc e23c 29be 8a3b f2ae 15be
00000130: 64a4 853d 8ec0 72bc 7b35 6a3d 7879 0cbe
00000140: 7867 eebd 72f4 02be ada4 34bd c8e0 b8bd
00000150: 83de d5bd 1f1d 863c 716b 043e a8f1 b23d
00000160: fadd e0bd 3d9a ff3d 16a0 86bd eb67 f7bd
00000170: 799c 013e 4448 18be bd0d 36be 2426 e6bd
00000180: d102 c9bd b525 2cbe ff2e d0bd c7ed 01bd
00000190: 1164 0a3e 8be1 223e 2fab 2c3b fd68 11be
000001a0: 73d9 9d3c 227f 0c3d 3f8d 1fbe 2a1b a43c
000001b0: 5666 3fbd 5f6c b83c b4a2 33bd bed4 bb3d
000001c0: 1740 e43d a705 38bd 1a7c b6bd 18df f4bd
000001d0: fccc 30be 68ef 30be ebdf 1abe 41ec 23be
000001e0: 6469 0dbe 4e2b 33be c79e 20be 981c 3a3d
000001f0: e5bb 06bd b818 afbd 71de e2bc cfdc 0bbe
00000200: 0076 3ebe f468 f43d b9b4 15be 40fc 48bc
00000210: b1c9 35be d4f0 1c3d 8e5e b8bd ca0c 343e
00000220: a2fb 8d3d b033 0d3e f65f c73d 5cd7 30bd
00000230: c05a 2fbe 1ab8 33be 2929 9d3b 2a4f e33d
00000240: b921 003e 656e 023e 3c12 033e 49e9 423d
00000250: ace8 283e 5716 843c ea6b a5bd d1fe e3bd
00000260: 401f c5bd 4ef4 0ebd fd08 033e 0a57 323d
00000270: f11c e13d f351 703c a499 7f3c 3f40 12be
00000280: b43f cbbd dfb5 08be fb85 0a3e dcd2 b6bd
00000290: 7dd1 163e 49de 9abd 7a57 bdbd e9c0 f7bd
000002a0: d55c 063e 1e50 0c3e 3b3b 19be 520f f93d
000002b0: 753c 39bd 5b98 923c 6a70 cebd 4f8d dbbd
000002c0: f6ae 8f3c 64b4 333e 7e3a 4e3b 7c2a b93d
000002d0: 841e 343e 75ff 00be 0384 33bd a3dc fdbb
000002e0: 8667 0b3e 68bd b13c 248f 7f3c cafb 583d
000002f0: 689d acbd aec6 b43d 0331 a8bd 44de 0b3e
00000300: 7b45 113d f47f f6ba f22f c4bc e8b5 c43d
00000310: 1787 babd 771e 96bd f49a b83d 1346 5f3d
00000320: 2927 ec3d b9b3 2a3e 0391 c3bc c930 dfbd
00000330: a26d 743d 1ab8 0cbe a666 f73d 3e25 203d
00000340: 368a 8b3d 9941 a43d b6bc 9ebd 736a 1e3c
00000350: 5aaf a1bc 89d1 cbbd dd38 743d 7982 2d3d
00000360: 671a 533d ed3e 1e3d bbcb 13bd 6a9e a0bd
00000370: c279 01be c182 1cbe 39bc 2f3e 2453 823b
00000380: aaa5 1dbe c724 17be 80b0 9c3d 9151 2dbe
00000390: 9418 25be aeef 36be ba4b 59bd 6023 06be
000003a0: fda2 07be 85f3 183e 3cbb 22be 7e59 0bbe
000003b0: 4875 28be 0032 02be 6368 203e f7c2 d63d
000003c0: 3e94 a33d 6a22 633d f1fb 09be 0961 393d
000003d0: cb9b e33d 8dd3 033e dd96 07be 75be 783d
000003e0: 0625 0ebe 1739 3c3d 80b7 d7bd 4130 a93d
000003f0: c2ac 373e 58bc f6bd 6964 0abe aa81 243e
0.0070940745 0.12835217 -0.051110912 0.027227731 0.097465396 -0.018434402 -0.02689317 -0.08975834
-0.15060455 0.074708216 0.07406919 0.006562171 -0.07356863 -0.1375164 -0.029082308 0.04021009
-0.12104845 -0.04955292 -0.09506658 0.106702305 0.058481522 0.12971994 -0.11509549 -0.009803564
0.13363394 -0.042731002 0.03808188 -0.15021853 -0.08096315 -0.08874751 -0.15403286 -0.13970625
-0.041958664 -0.110493936 -0.09771762 0.1315287 0.06300587 0.0716235 0.076328784 -0.12182982
0.025857536 -0.1713662 0.11665078 0.11442902 0.043576684 0.1145473 -0.03908786 0.09751335
0.0047340393 0.06448801 -0.00086754584 0.1686618 0.09975487 0.15274808 0.17613508 -0.011138675
0.033637006 -0.118691824 -0.016774986 0.067411676 -0.12590186 -0.10969702 -0.13459925 0.12437319
-0.09759996 0.08879963 0.07057892 -0.03738779 0.045753647 0.11632978 0.10359735 0.07323646
0.061902467 0.02769298 0.0042340946 -0.14617518 0.06525496 -0.014816416 0.05717991 -0.13718212
-0.11640829 -0.12788561 -0.04410236 -0.090272486 -0.10442831 0.016371308 0.1293161 0.087374985
-0.10979839 0.124805905 -0.06573503 -0.12080368 0.12657346 -0.14871317 -0.17778678 -0.112377435
-0.0981499 -0.16811259 -0.10165214 -0.031720903 0.13514735 0.1590635 0.002634715 -0.14200206
0.019268727 0.03430093 -0.15581225 0.020032484 -0.046728455 0.022512613 -0.043856338 0.09171437
0.11145037 -0.044927265 -0.08910389 -0.11956614 -0.17265695 -0.17278826 -0.1512448 -0.16008092
-0.13809735 -0.17496988 -0.15685569 0.045437425 -0.032894034 -0.085496366 -0.027693959 -0.1365845
-0.18599701 0.11934081 -0.14619721 -0.012267172 -0.1775272 0.03831561 -0.0900241 0.17583004
0.06932761 0.13789248 0.097351 -0.043174133 -0.17124462 -0.17550698 0.0047961664 0.11099084
0.12512864 0.12737425 0.12799925 0.04758576 0.16495007 0.016123934 -0.080772236 -0.11132587
-0.09625101 -0.034900956 0.12796398 0.04354004 0.10991848 0.014667976 0.015600596 -0.1428232
-0.0992426 -0.13350628 0.13527672 -0.08926937 0.14728351 -0.07561929 -0.092452005 -0.120973416
0.1312135 0.13702437 -0.14964001 0.12161125 -0.045223672 0.017894914 -0.10080035 -0.10720312
0.017539483 0.17549282 0.003146797 0.090413064 0.17589766 -0.12597449 -0.043827068 -0.007747249
0.1361371 0.021696761 0.015598092 0.0529745 -0.0842846 0.08826958 -0.08212473 0.13659006
0.035466652 -0.0018806444 -0.023948643 0.09605008 -0.091077976 -0.073300295 0.0901393 0.054510187
0.11530907 0.16670121 -0.023872858 -0.10897977 0.059674866 -0.13742104 0.120801255 0.039098017
0.06813471 0.08020324 -0.077508375 0.009668934 -0.019736934 -0.09952075 0.05962454 0.042360757
0.05153885 0.03863423 -0.036082964 -0.07842715 -0.12644103 -0.15284254 0.17161645 0.0039771963
-0.15395227 -0.14760123 0.07650852 -0.16925646 -0.16122657 -0.17864868 -0.053050734 -0.13099432
-0.13245769 0.14936645 -0.15891737 -0.13608357 -0.16450989 -0.12714386 0.1566482 0.10486405
0.07987259 0.05545274 -0.13475014 0.045258556 0.111136995 0.12873669 -0.13241144 0.06072851
-0.13881311 0.045952883 -0.10533047 0.08261157 0.17936996 -0.120476425 -0.13514866 0.16065088

arith.constant2 f4 [128, 12]
00000000: 00d1 bbbd 475c e9bd a7a5 3a3e 5959 68bd
00000010: 725d 813d 0552 a73d 70d8 9a3d d881 debc
00000020: 3ee2 2abe 17f0 003e 989f 28be def3 64be
00000030: 4ad8 6d3e 34e3 f4bd 79c9 ae3c 60c2 91bb
00000040: bd01 293e 8271 943c af31 293e 3680 3e3c
00000050: 7010 1e3e 9a03 85bd 29a3 4b3d d484 183e
00000060: fb63 953c 5379 9cbd 17d6 30bd 6003 18bd
00000070: 5f8a 47be 183e 303d 6568 433e f320 363e
00000080: a540 053e 3c59 063e fa3d 253e 12a3 fabb
00000090: 4342 083e a0b0 1cbe ff36 653e 3ac6 17be
000000a0: ff72 6d3d d400 173d ca19 163e cd76 0e3d
000000b0: c4f6 12bd 29d4 d0bd 4cc0 313c 669f 84bd
000000c0: 1ddd 143e 0b89 9e3d 08ac 28bd eebc 2dbe
000000d0: f224 05be 1318 78be df19 213e 4ecd dbbb
000000e0: 6167 f23d a268 1ebe a045 9b3d 7338 9b3d
000000f0: 9fd0 88bc f272 443d f53c 123e 18f2 95bd
00000100: d5e0 103e 9ec9 6c3d 9266 42be af7a 6a3d
00000110: 84e7 5dbd b5d4 a63d df09 5bbe f09b 693e
00000120: 962a 8ebd 7a97 d2bd da6c 1c3e 7858 f0bd
00000130: be61 2cbe c487 353e 915c 143c 899a 303d
00000140: ba04 963d 7ce0 65bd 4c04 863d f20e 113e
00000150: e85b c3bd b7af 9e3d 2889 72bc c1c2 013e
00000160: 42ac a9bd 61ad ab3c ba2c 003e b9db 0c3e
00000170: e854 d7bc 7eff 3abe db19 293e 6768 2d3e
00000180: 57b0 33be 8743 debc c3de 57bb 6d4e 35be
00000190: bd1e 1a3d 4bac f6bd fba5 7fbe 22b0 443e
000001a0: b6f4 c83d c411 02be c809 4ebd f177 093e
000001b0: 154b 5cbe f31e 2d3e ffa1 533e f1c1 03be
000001c0: 3e61 ae3d 4d02 2fbe bc97 06be 96f0 cfbd
000001d0: b742 9fbd 6636 24be 41db 663d c4e6 1b3d
000001e0: afcb a8bc f176 b9bd eb50 793d 7be6 1b39
000001f0: c747 ec3d 188d fe3d 7ed0 55be 5f1c 713d
00000200: a5f4 a83d c8e0 ed3d b8f7 093e 6158 37be
00000210: e2c1 6d3d abfe a73d 4bd8 ec3d 2946 b63c
00000220: 30af 063d 51d0 45be 37db 3bbd 1fd3 203e
00000230: 57a4 29be 69a4 c03b e56f da3d db74 6b3e
00000240: 0777 cd3c a2a3 fabd 937a 523e 8464 343e
00000250: fef3 843d 3334 13bd 81c6 25be 4a17 febd
00000260: 1739 a0bd 0029 02bc 73a9 b9bd fa5c 01bd
00000270: 0664 19be 1e56 cd3d bea8 393e df91 5dbe
00000280: e121 4abd fa5c b53d 0a7d 2d3e 50f2 82be
00000290: 00d1 f73d 026d 113c 9bd0 fa3c 5339 8fbe
000002a0: cf1d 813e 9f9c 9abd a675 3d3e af81 083e
000002b0: 366f 41bd 4b3c e53d 205a 27be 1cc7 14be
000002c0: 9e21 423e 9f3b 5cbd 3baf a23d 65f2 74bd
000002d0: c1c6 0bbe e25b 05be 0045 62be 124e bf3a
000002e0: eabb 023e be50 c13b c834 86be c8ac ed3d
000002f0: 07d5 1dbd 329b 213e 1679 2bbe 0691 0abe
00000300: 8b31 6dbe 9dc8 6c3d da4a 99bd fe00 23be
00000310: 4d5e 3a3e 0aa5 80bd 5259 673d dfbd 2b3d
00000320: cafd 1cbe ef06 b13c 9a08 04bb a511 283d
00000330: 8764 7c3d 3847 9fbd 5ac8 9bbd 9843 e8bd
00000340: 61a3 b5bd 9633 253e 373c f23d 2ebc 003e
00000350: f782 1d3e a4a1 0fbe 812e 303e 0e43 81be
00000360: 29ae 8f3d 2ffa 5e3d 9e76 22b9 e562 5ebe
00000370: 5f81 b93d 8b79 24bd 716a 49bc d21b 0dbe
00000380: 85df aebd aa72 9a3d be49 f1bd 7f48 9c3d
00000390: 5fcd 4dbd daaa 9cbd 5d65 173e 0fb9 463e
000003a0: 3a6b dd3c 239e ea3c 4321 143c e12c 32be
000003b0: 6f08 65be b29e bb3c 798d c43d 289a 563e
000003c0: 207b 50be 1729 b43d ce64 60be ae27 0ebe
000003d0: 80e0 2f3e a673 02be cc4a d9bd ad28 43be
000003e0: 6a1f 2b3e efa8 5fbd 9169 9dbd 9927 ab3c
000003f0: 2cbf 333e 6c31 643d 63ae 313e 0f68 c13b
-0.09170723 -0.11394554 0.18227254 -0.056725834 0.063166514 0.08169941 0.075608134 -0.027161524
-0.16687867 0.12591587 -0.1646713 -0.22358653 0.23227039 -0.11957398 0.021336304 -0.00444822
0.1650457 0.018120531 0.16522859 0.011627248 0.15435958 -0.064948276 0.04971615 0.1489442
0.018236151 -0.07640328 -0.043172922 -0.037112594 -0.19486378 0.043027967 0.19082792 0.17786007
0.13012941 0.13119978 0.16136923 -0.007648834 0.13306527 -0.15301752 0.2238426 -0.14821711
0.057970997 0.036866024 0.14658275 0.034781266 -0.035879865 -0.10196716 0.01084907 -0.06475715
0.14537473 0.077409826 -0.041179687 -0.16966602 -0.13002375 -0.24227934 0.15732525 -0.006707824
0.11836124 -0.15469602 0.07581639 0.07579126 -0.01670104 0.047961183 0.14281066 -0.07321566
0.14148267 0.057809465 -0.1898444 0.057245906 -0.05417587 0.081460394 -0.21390484 0.22813392
-0.069417164 -0.10282798 0.15275899 -0.11735624 -0.1683416 0.17727572 0.009055273 0.043116126
0.0732512 -0.056122288 0.06543788 0.14165857 -0.09539014 0.07748359 -0.014803208 0.12671949
-0.08284809 0.020956697 0.12517062 0.13755693 -0.026285604 -0.18261525 0.1651377 0.16934358
-0.17547737 -0.027131809 -0.0032939173 -0.17705698 0.03762697 -0.12044581 -0.2496566 0.19207814
0.098123 -0.1270209 -0.050302297 0.1342466 -0.21513017 0.16906337 0.20667265 -0.12866952
0.08514641 -0.17090721 -0.1314382 -0.1015331 -0.07776397 -0.16036376 0.05636144 0.038061872
-0.020604936 -0.090558894 0.060868185 0.00014867813 0.11537128 0.12429255 -0.20880315 0.058864947
0.08249787 0.11615139 0.13473403 -0.17904808 0.05804623 0.08202871 0.11564692 0.022250252
0.032881916 -0.19317748 -0.045863356 0.15705536 -0.16566597 0.005878974 0.106658734 0.22993796
0.02508117 -0.12238242 0.20554571 0.17616469 0.0649185 -0.035938453 -0.16189004 -0.12406786
-0.07823389 -0.0079443455 -0.09065523 -0.03158281 -0.14979562 0.10026191 0.18130776 -0.21637677
-0.049348716 0.088556245 0.1694223 -0.25575495 0.121004105 0.008876087 0.030617049 -0.27973422
0.25218055 -0.07549404 0.1850191 0.1333072 -0.0472252 0.111931406 -0.16342974 -0.14529079
0.18958136 -0.053767797 0.07943579 -0.059801478 -0.13650037 -0.13023332 -0.22096634 0.001459541
0.12766996 0.005899518 -0.26212144 0.11605221 -0.038533237 0.15781859 -0.1674541 -0.13531885
-0.2316343 0.057808507 -0.0748498 -0.15918347 0.18200035 -0.06281479 0.056481667 0.041929122
-0.15331188 0.021609752 -0.0020146728 0.041032452 0.061619308 -0.07777256 -0.076065734 -0.113410175
-0.08869053 0.1613296 0.11827891 0.12571785 0.1538199 -0.14026505 0.1720524 -0.2524647
0.0701564 0.054437812 -0.00015493712 -0.21717413 0.09057879 -0.040154975 -0.012293444 -0.13780144
-0.08538727 0.07541402 -0.11781643 0.07631015 -0.050244685 -0.07649775 0.14784761 0.19406532
0.027028669 0.028639859 0.009041133 -0.17399932 -0.22366498 0.02290282 0.09597296 0.20957243
-0.20359468 0.087969 -0.21913454 -0.13882324 0.17175484 -0.12739429 -0.106099695 -0.19058485
0.16711202 -0.054604467 -0.07686151 0.020892905 0.17553395 0.055711195 0.1735168 0.0059022973

arith.constant29 f4 [64]
00000000: 9f3f 24bb b5f6 fe3b c182 c43c a09c 973d
00000010: e161 bcbc ae24 d1bd 6ef2 ed3c fb05 e7bb
00000020: 5fb0 a5bd 810c 35bd aead 0fbd 77ad a2bb
00000030: 925e 26bd 627c e4bc b318 7d3c 0726 d83c
00000040: dc2f 7b3d 750b 333c 646e a3bc f4d0 483d
00000050: e005 e63b ac0f b23c 2863 683d 8673 273d
00000060: 3e81 44bb b557 0bbe 91f8 80bc efa3 c8bc
00000070: 23bc 3ebd 419e 6a3d b256 87bd a8a5 e4bb
00000080: 854b 4cbd 2afb b43c a7da ee3c 1ce3 d1bc
00000090: c59e 3b3d 2868 93bc 34ba 96bd 2559 1d3c
000000a0: d79e 99bc 3158 15bc 2bad bfbd f60a 6fbd
000000b0: de63 fcbc 5cba 663d f2ba 8bbc 5e23 b33d
000000c0: 0654 543d 6776 dfbc 62c2 4ebd 00c8 0d3d
000000d0: 2eb0 beba b44d 0f3d d22e 783c 6453 aebd
000000e0: 5bf9 afbd 9d1f cb3c b289 9abd 60ae 1d3c
000000f0: 33e7 be3d dd7b 0a3d 03e4 5bbd 941d 2a3d
-0.0025062335 0.0077808746 0.02398813 0.07402921 -0.022995891 -0.10212074 0.029046264 -0.0070502735
-0.08090281 -0.044201378 -0.035077743 -0.0049645263 -0.040617533 -0.027891342 0.015447783 0.02638532
0.06132494 0.010928025 -0.0199501 0.0490274 0.0070197433 0.021735989 0.056735188 0.040881656
-0.002998426 -0.13607676 -0.015743526 -0.024492232 -0.04656614 0.05727983 -0.06608333 -0.0069777556
-0.04987671 0.02209242 0.029156996 -0.02562099 0.04580571 -0.017994002 -0.07359734 0.009603773
-0.018752499 -0.009115265 -0.09359201 -0.058360063 -0.03080934 0.05633007 -0.017056916 0.0874698
0.051837943 -0.027278138 -0.050478347 0.034614563 -0.0014548355 0.034986213 0.015147882 -0.08511999
-0.08592483 0.024795348 -0.075457945 0.009624094 0.093214415 0.03380953 -0.053684246 0.041532114

arith.constant30 f4 [128]
00000000: 4514 493c e350 1abd 2977 713b 90bb 50bd
00000010: 62b2 18bd b105 b33c 13b4 f1bc a15c 283d
00000020: 179f 06bc bb1d 0a3d de55 453c 08d7 ea3c
00000030: 4d22 0ebd 7d97 c6bc a554 9cbc 8989 d1bd
00000040: 63ff 773c 761a 863d 67f7 0b3d 1ab5 4c3c
00000050: 83ab aabc 109b 1e3d 1acd 09bd afd4 d539
00000060: d2de 9cbd f597 06be 039e 3d3c af54 bcbc
00000070: 7e75 54bd f522 8cbc 2ce3 273d 33f8 de3b
00000080: 5973 bb3b bfd7 fbbb ba28 933d b7ec ea3b
00000090: e76d 41bd d13c 8cbd 4a79 d3bd 0638 0c3d
000000a0: a610 76bc 819a 633d 07db bcbc c65d c23b
000000b0: 7147 27bd e80a 3abd 7069 0ebe 9b84 87bd
000000c0: 1a90 803d 82de 943c fb27 a43d f521 24bc
000000d0: 1da5 2a3c c610 dabc 9f71 8c3c 6e82 923d
000000e0: d823 86bc ed51 83bb df0f ab3c 8fe8 843d
000000f0: c263 bd3c 09fa 17bc c126 e5bd a01a 753d
00000100: 62d9 8abd 29c9 40bd d228 19bd 1471 5cbd
00000110: fdb5 f1b8 b177 86bc c6a4 16be 1a59 87bd
00000120: 57da 36bd 21e8 c43c 72eb 11bc 2574 b03d
00000130: 8b2b 393d a8a4 a73d 84ac 52bc 7840 8bbb
00000140: 09ed 2ebe 5099 51bc bd57 293d 8bca 61bd
00000150: fc95 ef3a 60a1 77bd 2bb6 d2bd f759 f63c
00000160: 8406 ddbd f4bc 08bb 8392 d53c 0d02 14bd
00000170: 60ef 92bd d82b 51bd 0b88 dbbc e59c 063d
00000180: 21b5 a83d a362 cc3c 520a 643c 7613 b3bd
00000190: dc06 543d 375a b7bd 8992 163b 6b3f 75bd
000001a0: baa3 afbb 5b24 963c 6244 a8bb cb11 43bc
000001b0: 9019 903d 5a72 9c3b ff50 76bd 352c e5bc
000001c0: d347 2bbb c9c1 f3ba 43eb 0cbe 8042 97bc
000001d0: 9f34 9dbd e0ee 773c 8402 08bd a319 453d
000001e0: 136c 7b3d c2b5 abbc 0c0d 33bc 48c0 03bc
000001f0: 806d 17bd b2f0 27bd db03 013d 54ed 73bd
0.012272899 -0.037674796 0.0036844707 -0.050960124 -0.037279494 0.0218533 -0.029504811 0.041103963
-0.008216641 0.03371976 0.012044398 0.028666988 -0.03470068 -0.024242157 -0.01908333 -0.10231311
0.0151365725 0.06548016 0.034171488 0.01249435 -0.020833736 0.038722098 -0.033642866 0.00040784988
-0.07659687 -0.13143905 0.011573317 -0.022989599 -0.05186986 -0.017106513 0.040988132 0.00680449
0.0057205376 -0.007685631 0.07185502 0.007169332 -0.04722395 -0.06847537 -0.103258684 0.034233116
-0.015018618 0.05556727 -0.02305366 0.005931589 -0.040839616 -0.045420557 -0.13907409 -0.06617089
0.06277485 0.018172506 0.08015438 -0.010017862 0.010415343 -0.026619326 0.017144023 0.07153784
-0.016374514 -0.004007569 0.020881591 0.064896695 0.023118857 -0.009275922 -0.11189032 0.059839845
-0.06779744 -0.04706684 -0.037392445 -0.053818777 -0.000115256735 -0.016414495 -0.14711294 -0.06608792
-0.04464182 0.024036469 -0.008906232 0.08615903 0.04520754 0.081857026 -0.012858514 -0.0042496286
-0.17082609 -0.0127929 0.04134344 -0.0551248 0.0018278952 -0.060456634 -0.10288652 0.030072195
-0.107922584 -0.0020864578 0.026070839 -0.03613477 -0.071745634 -0.051067203 -0.026798269 0.03286447
0.082376726 0.024949377 0.013918476 -0.08743946 0.051764354 -0.08952754 0.0022975525 -0.059874933
-0.005360094 0.018327883 -0.005135105 -0.011906098 0.07036126 0.004774374 -0.060135838 -0.027975181
-0.002613534 -0.0018597181 -0.1376162 -0.018464327 -0.07676052 0.015132636 -0.033205524 0.048120152
0.061382364 -0.020960692 -0.010928404 -0.008041449 -0.03696966 -0.04100103 0.031497817 -0.059552506
